model_M1.pth (torch, 68303 bytes, 3 tensors)

fc1.weight f4 [128, 128]
00000000: 8029 4ebf 8d1c 59bf 051f 54bf 50fe 31bf
00000010: de26 5abf 6ec9 48bf d94d 50bf 8ab7 47bf
00000020: eeda 40bf b754 4abf 37bb 47bf 53f7 5bbf
00000030: 49c7 3cbf b904 25bf 80e2 44bf 37fd 46bf
00000040: 9439 3dbf 41eb 38bf 46ea 3fbf c975 34bf
00000050: 24a8 55bf 80be 3dbf c267 46bf 2305 23bf
00000060: b254 3cbf 4bb7 25bf 9408 1abf ddbc 03bf
00000070: 8c84 24bf aff6 11bf 04fe 2dbf bae2 1dbf
00000080: bf47 3dbf 1ec5 5cbf e883 4cbf 8477 33bf
00000090: d5ae 26bf 7103 25bf 8458 21bf 3090 25bf
000000a0: 03f7 34bf af3f 2bbf 9f30 29bf 5fbd 06bf
000000b0: 8ae5 07bf af73 10bf dd98 18bf cd34 0ebf
000000c0: 56cb 24bf 8e60 1ebf 6357 30bf eff2 41bf
000000d0: 70b1 08bf addd 31bf 48d7 febe 9789 1ebf
000000e0: 0f75 0cbf ffef 32bf c680 27bf 7624 35bf
000000f0: 77e9 09bf 51f6 febe 818f 12bf cc6c 05bf
00000100: 124a 2f3f 53d4 2a3f eedd 473f 8b77 3a3f
00000110: b15e 193f 893f 583f 996a 593f c315 3d3f
00000120: 86a0 393f 43d7 3f3f 0d58 2f3f cb8a 4b3f
00000130: a2cc 733f 192c 643f 0e32 643f d3be 5c3f
00000140: 3097 0d3f 0de4 fe3e d8a1 ed3e f342 0f3f
00000150: 5e6e 123f c01c 3c3f e554 c73e 52b1 343f
00000160: 6c87 1f3f c3b2 7d3f e2a6 183f 4824 e3bc
00000170: e9cf 1d3f 3770 1b3f faf1 fd3e 1265 373f
00000180: a1a9 113f e81e ea3e 0c95 103f a1e3 033f
00000190: 93fe 1e3f 7f05 093f 90ae 173f 1ad1 0f3f
000001a0: 40c9 c5bb ad9e 2f3f 063f 093f fa2f 0c3f
000001b0: 5f0b 393f 6f7b 483f 0eec 3d3f f356 2e3f
000001c0: 7d73 f63e 2938 d23e 33cc 023f 26ce ea3e
000001d0: c7fb de3e 0f81 223f 6999 ff3e 0663 183f
000001e0: c5a5 073f 7bdd 053f 3db8 ff3e e081 1d3f
000001f0: f101 643f 85c1 253f 811a 163f 8243 243f
00000200: a091 623f be1a 523f 8a3b 4f3f 12dd 573f
00000210: 6285 4c3f 094e 573f 2628 5f3f c2d6 563f
00000220: 1c25 493f 3478 3f3f 714d 413f dc5f 533f
00000230: a529 313f 6bd3 243f 3137 433f 6808 433f
00000240: 5b47 4b3f 2e0f 513f 2f1f 563f d198 223f
00000250: c339 473f a20c 463f 80de 343f b736 173f
00000260: 4ff4 3a3f 31e8 2e3f 570f 1e3f 6599 213f
00000270: ea07 2b3f 7563 263f a28e 2b3f e4f5 263f
00000280: 7d4b 3b3f 73f2 413f 3a1b 4e3f 1813 293f
00000290: 75f1 223f e4f3 273f b6bc 183f 25ec 1f3f
000002a0: e4c3 343f 57df 2f3f 6269 2a3f f6e2 063f
000002b0: 4c3c 063f 9bf9 ee3e b5f3 143f 5848 143f
000002c0: c5b5 213f a94f 193f db91 313f 3baa 473f
000002d0: 539f 233f fe2d 353f 29bd 0c3f 784b 1e3f
000002e0: 026b 123f af1e 253f 4c64 2e3f 2b6d 343f
000002f0: 16d1 113f 1aba 203f dc8a 2f3f aab2 2b3f
00000300: 104f 44bf c7a5 27bf 1e15 36bf b165 4abf
00000310: f291 1dbf 403c 43bf 131d 48bf 6540 48bf
00000320: 5e1d 3cbf efe7 4ebf 04b6 41bf b406 52bf
00000330: fbf7 6dbf 141f 69bf 03cc 6bbf fac2 63bf
00000340: 69ec 16bf e525 08bf 3851 fbbe d878 10bf
00000350: ad12 21bf ad4e 33bf 1b02 fcbe 8d5f 38bf
00000360: ac00 33bf fe41 6bbf 4384 18bf 5231 8abd
00000370: a474 19bf cc34 2cbf aa3a 16bf 8a65 29bf
00000380: a8ff 1abf f523 e2be 9a59 e9be f71a d4be
00000390: b792 20bf 3fd7 07bf dc57 0dbf a1d4 18bf
000003a0: 6f08 903d 3def 13bf 3139 13bf 0b2a 0bbf
000003b0: e4c1 2ebf e5d4 3bbf cd1d 31bf 1888 2fbf
000003c0: ec93 d6be 2f69 07bf dab6 0fbf a491 ebbe
000003d0: 31e2 08bf 11c4 31bf 0b2b 10bf 2464 0dbf
000003e0: 9cfe 06bf f60e efbe 7903 18bf 691d 1cbf
000003f0: 7017 66bf 0aab 27bf b2cf 02bf 40a9 17bf
-0.80532074 -0.8480919 -0.8285983 -0.69528675 -0.85215557 -0.7843236 -0.81368786 -0.78014433
-0.7533406 -0.79035515 -0.7802004 -0.8592426 -0.73741585 -0.6446033 -0.7690811 -0.77730125
-0.7391598 -0.7223397 -0.7496685 -0.70492226 -0.8345969 -0.74118805 -0.7750207 -0.63679713
-0.73566735 -0.6473281 -0.6016934 -0.5146006 -0.6426475 -0.57017034 -0.6796572 -0.6167408
-0.739376 -0.86238277 -0.7988877 -0.7010424 -0.6511052 -0.64458376 -0.6302569 -0.6467314
-0.7068941 -0.6689405 -0.66089815 -0.5263271 -0.53084624 -0.5642652 -0.5960825 -0.5554932
-0.64372766 -0.6186608 -0.6888334 -0.7576131 -0.5339575 -0.69478875 -0.49773622 -0.61928695
-0.5486612 -0.69897455 -0.6543087 -0.7075876 -0.53871864 -0.497973 -0.5725022 -0.52119136
0.684724 0.6673023 0.7807301 0.7283866 0.5991011 0.84471947 0.8492828 0.7386133
0.72510564 0.7493784 0.6849373 0.79508656 0.9523412 0.8912979 0.8913888 0.86228675
0.5530882 0.49783364 0.4641254 0.5596153 0.57199657 0.7348137 0.38931957 0.7058307
0.6231601 0.99100894 0.5962964 -0.027727261 0.6164537 0.607181 0.49598676 0.71638596
0.5689946 0.45726705 0.5647743 0.5151921 0.621072 0.5352401 0.59250736 0.5617844
-0.0060359538 0.68601495 0.5361179 0.54760706 0.72282976 0.78313345 0.74188316 0.68101424
0.48134986 0.41058472 0.51092833 0.45860404 0.43551466 0.6347818 0.4992173 0.595261
0.5298732 0.5229108 0.4994525 0.615263 0.8906546 0.6474841 0.5863419 0.6416551
0.88503456 0.82072055 0.80950224 0.843217 0.79891026 0.8410345 0.87170637 0.83921444
0.7857225 0.7479279 0.7550879 0.82568145 0.6920417 0.643851 0.7625609 0.761847
0.79405755 0.8166379 0.8364133 0.6351443 0.7782251 0.77363026 0.7065201 0.59067863
0.73029035 0.68323046 0.61742157 0.63124686 0.6680895 0.6499551 0.67014515 0.6521895
0.7316206 0.75760573 0.80510294 0.6604476 0.63649684 0.6560652 0.5966295 0.624697
0.70611405 0.68700165 0.6656705 0.52690065 0.52435756 0.4667481 0.5818437 0.5792289
0.63167983 0.59887177 0.6936318 0.77994126 0.63914984 0.70773304 0.54976135 0.61833906
0.5719453 0.64499944 0.6812179 0.7047908 0.56959665 0.6278397 0.6857126 0.67069495
-0.7668314 -0.6548733 -0.7112597 -0.7906142 -0.6155082 -0.7626381 -0.78169364 -0.7822326
-0.7348231 -0.8082265 -0.7566836 -0.8204148 -0.92956513 -0.91063046 -0.9210817 -0.88969386
-0.58954483 -0.5318282 -0.49085402 -0.5643439 -0.6291912 -0.70041925 -0.49220356 -0.720208
-0.699229 -0.9189757 -0.59576815 -0.06747688 -0.59943604 -0.6726806 -0.58683264 -0.6617056
-0.6054635 -0.44168058 -0.45576173 -0.41426823 -0.6272387 -0.53062814 -0.5521219 -0.59699446
0.070328586 -0.57786924 -0.5750914 -0.5436103 -0.68264604 -0.73371726 -0.691861 -0.6856704
-0.4190973 -0.5289487 -0.56138384 -0.46009552 -0.5347014 -0.694398 -0.5631568 -0.5523093
-0.52732253 -0.46691102 -0.593803 -0.60982376 -0.8987951 -0.6549536 -0.5109817 -0.5924263

fc1.bias f4 [128]
00000000: 543e 53bf 4a40 533f 4719 533f 1148 4c3f
00000010: cdd4 41bf 7f80 51bf edec 423f 894e 3cbf
00000020: ceb0 4ebf 0e77 4c3f 8e48 42bf 793f 54bf
00000030: 5b4d 51bf 6a1c 36bf 9f4e 3e3f b79a 4d3f
00000040: 2ce1 36bf a50a 54bf 3732 3abf cea9 533f
00000050: 71b4 593f bd93 42bf ffc8 50bf 2a9a 42bf
00000060: 019e 42bf 898f 37bf 596a 513f ea57 533f
00000070: 1179 47bf b131 453f 2989 47bf 70b4 4fbf
00000080: 57a5 413f 852e 4c3f a0c2 383f 61b3 46bf
00000090: dcaa 583f 3de6 5c3f cf29 453f 2c38 3abf
000000a0: f9f1 40bf 3aa7 4fbf 5e74 533f e548 4d3f
000000b0: d5f3 513f 2098 523f 4564 45bf 9403 403f
000000c0: 8573 4fbf bafe 5e3f d885 58bf ed96 3dbf
000000d0: 00ea 3dbf 3328 4d3f 923c 58bf ea7d 423f
000000e0: 1159 5d3f 11fb 433f ff24 50bf 364c 323f
000000f0: 5d39 50bf 16b8 363f f95c 49bf e8fc 503f
00000100: 0b66 383f 591b 3abf 7902 40bf b530 53bf
00000110: 000d 39bf 66ed 4b3f dfef 46bf a52b 42bf
00000120: f8a7 323f b14d 523f 068a 5ebf 312f 37bf
00000130: b8b2 343f db17 4e3f 17c0 4abf 2f25 573f
00000140: 1ec6 39bf cd42 5abf 896a 35bf 7724 34bf
00000150: 7d64 4c3f a9c5 33bf 091b 4b3f a509 47bf
00000160: 24bd 45bf f659 453f cbc3 40bf 60c3 3cbf
00000170: 2808 41bf 612b 40bf 5c0f 5dbf 2e47 403f
00000180: c4b8 50bf de3b 3fbf 974e 39bf 405d 3abf
00000190: bc1c 30bf bc01 51bf 9e99 49bf 259e 4a3f
000001a0: 20d8 4e3f b6c9 603f c292 4d3f 912c 583f
000001b0: 61c0 543f 936e 46bf 384d 343f d0ed 4abf
000001c0: 608b 413f 0484 57bf b401 463f 017d 4d3f
000001d0: 7625 4a3f 3759 59bf 0830 3cbf 7408 40bf
000001e0: 6640 46bf a477 49bf d026 383f 2a9c 553f
000001f0: a34b 41bf beb3 4fbf 148c 4c3f 9182 49bf
-0.8251698 0.8251997 0.82460445 0.79797465 -0.75715333 -0.81836694 0.7614277 -0.73557335
-0.8073853 0.79869163 -0.7589196 -0.8290935 -0.8175866 -0.71137106 0.74338716 0.803142
-0.71437335 -0.8282874 -0.7273287 0.82680976 0.85040957 -0.7600668 -0.81556696 -0.76016486
-0.76022345 -0.7170339 0.818029 0.8255602 -0.7791911 0.7702895 -0.77943665 -0.811347
0.75642914 0.79758483 0.72171974 -0.7761746 0.8463571 0.86288816 0.7701692 -0.7274196
-0.7536922 -0.8111454 0.8259944 0.80189353 0.82012683 0.82263374 -0.77106124 0.7500546
-0.81035644 0.8710743 -0.8457923 -0.7405842 -0.7418518 0.80139464 -0.8446742 0.7597338
0.8646403 0.7655497 -0.8130645 0.6964754 -0.8133753 0.7137464 -0.7865749 0.81635904
0.72030705 -0.7269798 -0.7500377 -0.82496196 -0.7228546 0.79659116 -0.77709764 -0.75847846
0.6978755 0.821498 -0.8692936 -0.71556383 0.70585203 0.8050515 -0.79199356 0.8404111
-0.7256793 -0.8525818 -0.70865685 -0.7036814 0.7984083 -0.7022348 0.7933813 -0.7774909
-0.7724173 0.77090394 -0.75298756 -0.7373562 -0.7540307 -0.7506619 -0.8635156 0.7510861
-0.8153193 -0.74700725 -0.72385544 -0.7279854 -0.68793845 -0.8164327 -0.78750026 0.7914756
0.8079853 0.87807786 0.8030206 0.84443 0.83106047 -0.7751247 0.70430326 -0.79269123
0.75603294 -0.84185815 0.7734635 0.80268866 0.7896341 -0.84901756 -0.7351079 -0.750129
-0.77442014 -0.7869818 0.71934223 0.8344141 -0.7550604 -0.8113364 0.7990124 -0.78714854

fc2.weight f4 [1, 128]
00000000: d7d8 0340 cd04 04c0 cfc2 05c0 f410 08c0
00000010: b5f4 0440 c29f 0140 8adc 05c0 5bff 0440
00000020: bc1f 0340 93be 03c0 66f0 0440 cd47 0140
00000030: f68a 0640 42ff 0640 1751 07c0 d668 04c0
00000040: 74a2 0540 5704 0240 80d0 0740 7dc0 01c0
00000050: d76e 00c0 d190 0840 223c 0440 b1e9 0740
00000060: aa78 0340 0aa8 0640 0dea 01c0 af61 03c0
00000070: 5902 0540 7d98 04c0 1829 0240 28d8 0140
00000080: ae0e 07c0 85a1 03c0 d0d4 07c0 b3fa 0140
00000090: 9da7 01c0 2d25 00c0 4c2b 03c0 6362 0340
000000a0: 88cc 0540 955b 0440 4998 01c0 8f8c 00c0
000000b0: 3d17 00c0 ec1e 03c0 b261 0340 409f 05c0
000000c0: 8514 0640 cb65 01c0 e4dc 0040 e677 0640
000000d0: e2d7 0840 e008 04c0 a71c 0140 0261 08c0
000000e0: 133e ffbf 2afb 03c0 7fdd 0540 4fda 05c0
000000f0: 728b 0140 b0cb 05c0 4ec0 0340 09d9 02c0
00000100: a82c 07c0 79ef 0240 9145 0640 4132 0240
00000110: 2af4 0340 9dc7 06c0 28e2 0140 d2c9 0240
00000120: 9216 06c0 8304 02c0 c106 0040 c42c 0840
00000130: e441 06c0 f321 05c0 f2b4 0140 ac51 04c0
00000140: 24f3 0340 cd57 0040 39fd 0740 31fd 0740
00000150: 6a3d 05c0 3054 0740 d7b9 02c0 3c5c 0540
00000160: 752e 0540 c2d4 03c0 ddb3 0540 830a 0740
00000170: 5a7c 0640 c10c 0240 60a7 0040 33b3 01c0
00000180: 3a8f 0640 2d6a 0440 8200 0840 ae3c 0640
00000190: ce58 0840 4795 0040 fec4 0040 b7d4 05c0
000001a0: 5d2e 06c0 0fe1 00c0 a82d 04c0 9bb1 00c0
000001b0: ccd4 febf 5f7d 0340 52e4 07c0 f790 0240
000001c0: 7567 07c0 4eec 0140 bc5d 03c0 15c8 04c0
000001d0: c977 05c0 2676 0040 c99d 0540 5c51 0340
000001e0: 2d4a 0140 36ea 0340 c60b 08c0 9e0c 05c0
000001f0: 33cc 0640 f79a 0440 6c3f 02c0 42c9 0740
2.0601099 -2.062793 -2.0900152 -2.1260347 2.0774357 2.0253758 -2.0915856 2.0780857
2.048812 -2.0585067 2.0771728 2.0200074 2.1022315 2.1093297 -2.1143243 -2.0688987
2.0880404 2.031515 2.1221008 -2.0273736 -2.0067651 2.133839 2.0661702 2.1236384
2.0542397 2.1040063 -2.0299103 -2.0528371 2.0782683 -2.0718071 2.0337582 2.0288181
-2.110271 -2.0567334 -2.122364 2.0309265 -2.0258553 -2.002269 -2.0495176 2.05288
2.0906086 2.0680897 -2.0249197 -2.008579 -2.0014184 -2.0487623 2.0528378 -2.0878448
2.0950024 -2.021838 2.013482 2.101068 2.1381764 -2.0630417 2.0173738 -2.130921
-1.9940819 -2.0622048 2.091644 -2.0914495 2.024136 -2.090557 2.0586123 -2.0444968
-2.1121006 2.0458663 2.097996 2.0343173 2.0617776 -2.1059334 2.0294285 2.0435681
-2.0951276 -2.0315254 2.0004122 2.1277323 -2.0977716 -2.080197 2.026669 -2.0674849
2.0617151 2.005359 2.1248305 2.1248286 -2.0818734 2.1145134 -2.0425928 2.0837545
2.0809605 -2.0598607 2.089103 2.1100166 2.1013398 2.0320284 2.0102158 -2.0265625
2.1024919 2.0689805 2.125031 2.0974536 2.1304202 2.0091112 2.0120234 -2.091108
-2.0965798 -2.0137365 -2.0652866 -2.0108402 -1.990869 2.054527 -2.1233106 2.040098
-2.1156895 2.030048 -2.052596 -2.074712 -2.085436 2.0072112 2.0877554 2.0518408
2.0201523 2.06117 -2.1257186 -2.078895 2.1062133 2.0719583 -2.035121 2.1216588
