model_M0.pth (torch, 68303 bytes, 3 tensors)

fc1.weight f4 [128, 128]
0	0xbf35ee63	-0.71066874
1	0xbf4d8746	-0.80284536
2	0xbf3d2780	-0.738884
3	0xbf306d33	-0.68916625
4	0xbf2e3cbc	-0.68061423
5	0xbf3b1b9b	-0.73089
6	0xbf4a0d00	-0.78926086
7	0xbf57cc22	-0.84295857
8	0xbf254401	-0.6455689
9	0xbf41af5e	-0.75658214
10	0xbf3d3d16	-0.73921335
11	0xbf3f4167	-0.7470917
12	0xbf2b7776	-0.6697916
13	0xbf346b97	-0.7047667
14	0xbf3e8dae	-0.74434936
15	0xbf39b694	-0.7254422
16	0x3d85fc19	0.065422244
17	0x3cb79760	0.022411048
18	0xbeb6eec0	-0.35729027
19	0xbd1e8654	-0.038702324
20	0xbeaee035	-0.3415543
21	0xbd5448bc	-0.051827177
22	0xbe7ea877	-0.24868952
23	0x3d25fa9e	0.04052221
24	0x3d8c078d	0.06837378
25	0xbe5b6791	-0.21426226
26	0xbe56e1ea	-0.20984617
27	0xbe43b6ae	-0.19112656
28	0xbe902ba9	-0.2815831
29	0xbe9ffdf0	-0.31248426
30	0xbe8d4490	-0.27591372
31	0xbe61db6f	-0.22056364
32	0xbf249668	-0.64292
33	0xbf2c2e5b	-0.6725823
34	0xbf37c73f	-0.717884
35	0xbf3cf7e1	-0.73815733
36	0xbf276a93	-0.65396994
37	0xbf3f3a9e	-0.7469882
38	0xbf419a56	-0.7562612
39	0xbf1d7011	-0.61499125
40	0xbf4158e3	-0.75526255
41	0xbf3e6ac3	-0.74381655
42	0xbf2d1b95	-0.6762021
43	0xbf35b3f2	-0.709777
44	0xbf265ad2	-0.6498233
45	0xbf2b04af	-0.6680402
46	0xbf21a8da	-0.6314827
47	0xbf2367e7	-0.6383042
48	0xbf1343f6	-0.57525575
49	0xbf25ddb5	-0.64791423
50	0xbf1c72a1	-0.6111241
51	0xbf1df3d1	-0.6170016
52	0xbf2064da	-0.6265389
53	0xbf141d84	-0.5785754
54	0xbf1ba2fc	-0.6079557
55	0xbf07188d	-0.52771837
56	0xbf2d6d2d	-0.67744714
57	0xbf2a94aa	-0.66633093
58	0xbf1d6c59	-0.6149345
59	0xbf277650	-0.65414906
60	0xbf1b5b8d	-0.6068657
61	0xbf07c6cd	-0.5303772
62	0xbf066d9c	-0.52511
63	0xbf0f1c38	-0.55902433
64	0x3f1fcfa9	0.6242624
65	0x3f1ca2bb	0.61185807
66	0x3f4150b7	0.75513786
67	0x3f3b45db	0.73153466
68	0x3f1cd664	0.61264634
69	0x3f3be320	0.7339344
70	0x3f20484e	0.6261033
71	0x3f37f97b	0.7186505
72	0x3f154b5c	0.58318114
73	0x3f43da84	0.76505303
74	0x3f3bfbde	0.73431194
75	0x3f2a93c6	0.66631734
76	0x3f60a8a7	0.87757343
77	0x3f59a46b	0.85016507
78	0x3f4b2327	0.79350513
79	0x3f3bf335	0.7341798
80	0xbd0ca663	-0.034338366
81	0xbb0d1080	-0.0021524727
82	0x3e897914	0.26850188
83	0x3d5af4de	0.05345618
84	0x3da7b96b	0.081896625
85	0xbda56598	-0.08076018
86	0xbd208ec2	-0.039198644
87	0xbcbb5f94	-0.022872724
88	0x3d8408af	0.06446969
89	0x3daa0def	0.08303439
90	0x3d2dc812	0.04242713
91	0x3cc6b878	0.024257883
92	0x3d6b5e1e	0.057462804
93	0x3d3bebb6	0.04587909
94	0x3d91aca3	0.07113006
95	0x3d2e45a6	0.04254689
96	0x3f28d2b6	0.6594652
97	0x3f235df3	0.6381523
98	0x3f114be4	0.56756425
99	0x3f1f3e96	0.62204874
100	0x3f131719	0.5745712
101	0x3f14be89	0.58103234
102	0x3f1aa4ef	0.6040792
103	0x3f0d659f	0.55233186
104	0x3f2756bf	0.6536674
105	0x3f2d0216	0.6758131
106	0x3f18db72	0.59709847
107	0x3f1a3c04	0.60247827
108	0x3f333b9d	0.7001284
109	0x3c853374	0.016259886
110	0x3f321064	0.6955626
111	0x3f341704	0.7034762
112	0x3ef16f23	0.47155103
113	0xbd72f3eb	-0.05931465
114	0xbd95695a	-0.07295485
115	0x3d9c2431	0.076240905
116	0xbd768372	-0.06018395
117	0x3d80a68f	0.062817685
118	0xbdb3694f	-0.087603204
119	0x3b7f74a0	0.0038979426
120	0x3d77ee16	0.06052979
121	0x3d802733	0.06257477
122	0x3d02aea2	0.031904824
123	0x3c49a888	0.012308247
124	0x3d62d466	0.05537834
125	0xbc0c34c0	-0.008557498
126	0x3d3f53b6	0.046710692
127	0xbcbd6d08	-0.02312328
128	0x3f272e27	0.653048
129	0x3f299fb9	0.6625934
130	0x3f2ebf36	0.68260515
131	0x3f31dd5c	0.6947839
132	0x3f3b28a0	0.73108864
133	0x3f3895af	0.721034
134	0x3f30f06d	0.6911686
135	0x3f2feb9b	0.6871888
136	0x3f16ec3d	0.5895422
137	0x3f3a0ee5	0.7267898
138	0x3f2137ea	0.62975943
139	0x3f30f962	0.6913053
140	0x3f30fb79	0.69133717
141	0x3f2c9240	0.6741066
142	0x3f27b004	0.65502954
143	0x3f23e666	0.64023435
144	0x3da71f35	0.08160249
145	0xbd64860c	-0.0557919
146	0x3e42926a	0.19001165
147	0x3da090f1	0.078401454
148	0x3e6bae51	0.23015715
149	0xbd9010b9	-0.070344396
150	0x3e652b47	0.2237979
151	0x3c8b7184	0.017021902
152	0xbd810eb8	-0.063016355
153	0x3e5e2f14	0.21697646
154	0x3e863f1d	0.26220027
155	0x3e659d4f	0.2242329
156	0x3e82dc07	0.25558493
157	0x3e76f00b	0.24115007
158	0x3e37b596	0.17940363
159	0x3e5d4fce	0.21612474
160	0x3f253d33	0.6454651
161	0x3f2fb75d	0.68639165
162	0x3f2098be	0.62733066
163	0x3f14462d	0.5791958
164	0x3f35c923	0.71010035
165	0x3f3920a0	0.72315407
166	0x3f385058	0.71997595
167	0x3f13336e	0.5750035
168	0x3f1ee2fe	0.6206511
169	0x3f1ed60b	0.62045354
170	0x3f2cf3a8	0.6755929
171	0x3f249e8a	0.6430441
172	0x3f360258	0.71097326
173	0x3f2d6ade	0.6774119
174	0x3f2a6f71	0.66576296
175	0x3f0a764f	0.54086775
176	0x3f2a4770	0.66515255
177	0x3f05f30f	0.52324003
178	0x3f0cf0f0	0.5505514
179	0x3f1fb61a	0.6238724
180	0x3f2b6de2	0.6696454
181	0x3f13117a	0.5744854
182	0x3f0213a1	0.508112
183	0x3f06a747	0.52598995
184	0x3f1c300a	0.610108
185	0x3f1cece4	0.61298966
186	0x3f1fe585	0.62459594
187	0x3f1dcb14	0.61638
188	0x3f13be36	0.57712114
189	0x3f1a66ff	0.6031341
190	0x3f0b8054	0.5449269
191	0x3f14133d	0.57841855
192	0xbf173183	-0.59059924
193	0xbf0a0e51	-0.53928095
194	0xbf22197a	-0.63320124
195	0xbf23ea81	-0.640297
196	0xbf1b73c3	-0.60723513
197	0xbf2e8996	-0.6817869
198	0xbf26e228	-0.6518884
199	0xbf2a3d8a	-0.6650015
200	0xbf1581d0	-0.58401203
201	0xbf2f950d	-0.6858681
202	0xbf4178c6	-0.7557491
203	0xbf1b5676	-0.60678804
204	0xbf665914	-0.8997967
205	0xbf526a9a	-0.8219391
206	0xbf396d0b	-0.7243201
207	0xbf2abc4a	-0.66693556
208	0x3c6a5fd0	0.01430507
209	0xbd8017d1	-0.062545426
210	0xbe21dbdc	-0.15806526
211	0xbda5458e	-0.08069907
212	0xbc12d378	-0.008961551
213	0xba1dd500	-0.0006020814
214	0xbd29502a	-0.041336216
215	0xbd74eced	-0.059796263
216	0xbda0fd99	-0.0786087
217	0xbd926518	-0.07148188
218	0xbdb4df97	-0.08831709
219	0x3d543f1e	0.051818006
220	0x3cf72878	0.030170664
221	0x3d28f566	0.041249655
222	0xbce2e144	-0.027695306
223	0xbdb3025e	-0.08740686
224	0xbf0c1a54	-0.54727674
225	0xbf0bdc6c	-0.5463321
226	0xbf0c8991	-0.5489741
227	0xbf1c2d38	-0.610065
228	0xbf192392	-0.598199
229	0xbf01172c	-0.5042598
230	0xbf1a13f0	-0.6018667
231	0xbf1116e6	-0.56675565
232	0xbf0bc69c	-0.5459993
233	0xbf275a2c	-0.65371966
234	0xbf1d6446	-0.6148113
235	0xbf177d2e	-0.59175384
236	0xbf3589bc	-0.7091329
237	0xbd350de6	-0.044202708
238	0xbf139dc8	-0.5766263
239	0xbf2581b3	-0.6465103
240	0xbebe7a50	-0.37202692
241	0x3d02a6c4	0.03189732
242	0x3da29f13	0.07940497
243	0xbdae2775	-0.085036196
244	0x3d854209	0.06506736
245	0x3b63a020	0.0034732893
246	0x3daba2eb	0.083806835
247	0x3d605d8a	0.054776706
248	0xbbb43c40	-0.0055003464
249	0xbd17e88d	-0.037087012
250	0x3c9151a8	0.017739132
251	0xbd8f6269	-0.07001192
252	0x3c762ce8	0.015025355
253	0x3bf65350	0.007517256
254	0xbca76240	-0.020432591
255	0x3d5afb9e	0.053462617

fc1.bias f4 [128]
0	0xbf38cd06	-0.7218784
1	0x3f335f78	0.7006755
2	0x3f32265d	0.6958979
3	0x3f2b0308	0.668015
4	0xbf25f9f5	-0.6483453
5	0xbf2abd07	-0.6669468
6	0xbf28baca	-0.6591002
7	0xbf453f7d	-0.7705
8	0x3f342e17	0.7038283
9	0xbf165725	-0.5872672
10	0x3f2559ec	0.64590335
11	0x3f1ad439	0.60480076
12	0xbf373428	-0.7156396
13	0xbf2aed26	-0.6676811
14	0xbf1dc9b3	-0.61635894
15	0xbf3a1bbd	-0.72698575
16	0xbf3b94ee	-0.73274124
17	0xbf253f91	-0.6455012
18	0x3f273b42	0.65324795
19	0x3f3360bc	0.7006948
20	0xbf1cef50	-0.6130266
21	0xbf4160e6	-0.7553848
22	0x3f2dcf58	0.67894506
23	0xbf222b6a	-0.63347495
24	0x3f3e8448	0.74420595
25	0x3f3397eb	0.70153683
26	0xbf322614	-0.6958935
27	0xbf3550dd	-0.7082651
28	0x3f2e93a5	0.6819404
29	0x3f4afd5c	0.79292846
30	0xbf3597d4	-0.70934796
31	0x3f4734ff	0.7781524
32	0xbf34a8b7	-0.7056994
33	0xbf1e6d32	-0.6188537
34	0x3f38479f	0.71984285
35	0x3f2c4eec	0.67307925
36	0x3f270f34	0.65257573
37	0xbf31c01b	-0.69433755
38	0xbf3aeddf	-0.7301921
39	0x3f2b927b	0.67020386
40	0x3f36edba	0.7145649
41	0xbf33f9d9	-0.7030311
42	0xbf32795b	-0.69716424
43	0x3f215847	0.63025326
44	0xbf36b3a6	-0.7136787
45	0x3f2a714a	0.66579115
46	0xbf3f338c	-0.7468803
47	0xbf291dfb	-0.6606137
48	0xbf2529a7	-0.6451668
49	0x3f435ea3	0.7631628
50	0x3f484825	0.78235084
51	0xbf2e034b	-0.67973775
52	0xbf2375da	-0.638517
53	0x3f2d34ff	0.6765899
54	0xbf1b7379	-0.6072307
55	0xbf38aac6	-0.7213558
56	0xbf25784a	-0.6463667
57	0x3f29a86f	0.66272634
58	0x3f2f6b99	0.68523556
59	0xbf2e7113	-0.6814129
60	0xbf446331	-0.76713854
61	0xbf1d5435	-0.61456615
62	0xbf1cc063	-0.6123106
63	0x3f2ae395	0.6675351
64	0x3f400811	0.7501231
65	0xbf34f58e	-0.70687187
66	0x3f362bbe	0.71160495
67	0x3f3252f9	0.69657856
68	0x3f3a470f	0.72764677
69	0xbf3582cd	-0.7090271
70	0xbf205bb5	-0.62639934
71	0x3f250022	0.6445333
72	0x3f21cfc3	0.63207644
73	0x3f28b105	0.6589511
74	0x3f23e5f5	0.6402276
75	0xbf25963e	-0.64682376
76	0xbf2163cc	-0.630429
77	0xbf2c1643	-0.6722147
78	0x3f43a41e	0.764223
79	0x3f2b7f39	0.66991
80	0xbf1f16cd	-0.62144166
81	0x3f32f44c	0.6990402
82	0x3f1fe2d2	0.62455475
83	0xbf2bc2ae	-0.6709393
84	0xbf2a9a49	-0.6664167
85	0x3f25a88e	0.6471032
86	0xbf35d764	-0.71031785
87	0x3f3f3ea3	0.7470495
88	0x3f2716d4	0.6526921
89	0x3f23e9a9	0.6402841
90	0xbf3eac5b	-0.74481744
91	0x3f3e0ede	0.74241436
92	0xbf2e9497	-0.6819548
93	0xbf3f0cf7	-0.7462916
94	0x3f279314	0.654588
95	0xbf2a18f8	-0.6644435
96	0x3f2696ed	0.65074044
97	0xbf36c7d5	-0.7139867
98	0xbf29aa14	-0.66275144
99	0xbf218cd5	-0.6310552
100	0xbf26e5c0	-0.6519432
101	0xbf3977f5	-0.72448665
102	0x3f292217	0.6606764
103	0xbf29656d	-0.6617039
104	0xbf3a8ac4	-0.7286799
105	0x3f324c90	0.69648075
106	0x3f2aad9e	0.6667117
107	0x3f2be8e5	0.67152244
108	0xbf32eac5	-0.6988948
109	0xbf2ebc50	-0.6825609
110	0x3f3303ec	0.6992786
111	0xbf2f7a67	-0.68546146
112	0x3f2a2323	0.66459864
113	0x3f36bd37	0.7138247
114	0x3f1bd29f	0.6086826
115	0x3f1f679c	0.6226747
116	0x3f2ca413	0.6743786
117	0x3f18ae34	0.5964081
118	0x3f367df2	0.7128593
119	0xbf41e8c1	-0.7574578
120	0xbf3d1e7f	-0.7387466
121	0xbf3d4afa	-0.7394253
122	0xbf401684	-0.75034356
123	0x3f2fabc7	0.68621486
124	0x3f372c89	0.7155233
125	0xbf283d0c	-0.6571815
126	0xbf2701b0	-0.6523695
127	0xbf21fd99	-0.63277584

fc2.weight f4 [1, 128]
0	0x3fa5e141	1.2959367
1	0xbfab85a4	-1.3400159
2	0xbfadd778	-1.3581381
3	0xbfac9d89	-1.3485576
4	0x3fb2d784	1.397202
5	0x3fb197c5	1.3874441
6	0x3fa8b4c4	1.3180165
7	0x3fa26d8a	1.2689679
8	0xbfad2eeb	-1.3529943
9	0x3fb1e161	1.3896905
10	0xbfadafdb	-1.3569292
11	0xbfb35788	-1.4011087
12	0x3faac7f5	1.3342272
13	0x3faa452e	1.3302362
14	0x3fae0a48	1.3596888
15	0x3fa656be	1.2995222
16	0x3fa8fcd8	1.3202162
17	0x3faf3ccf	1.3690432
18	0xbfb24c5e	-1.3929555
19	0xbfb18d5c	-1.3871264
20	0x3fad652b	1.3546499
21	0x3f9f12dd	1.2427632
22	0xbfb0c5c2	-1.3810351
23	0x3faf6eae	1.3705652
24	0xbfa5ad1e	-1.2943456
25	0xbfa620d4	-1.2978768
26	0x3fac18f7	1.3445119
27	0x3faa1913	1.3288902
28	0xbfa91d09	-1.3211986
29	0xbfa21cdb	-1.2665056
30	0x3fa90fda	1.3207963
31	0xbfa0469a	-1.2521546
32	0x3fab4b1e	1.3382299
33	0x3fb2fbf1	1.3983136
34	0xbfaacbdc	-1.3343463
35	0xbfaab109	-1.3335277
36	0xbfadd91d	-1.3581883
37	0x3fa84e6c	1.3148932
38	0x3fa65d68	1.2997255
39	0xbfa8ddf6	-1.3192737
40	0xbfaba6f9	-1.3410331
41	0x3fae63ea	1.3624241
42	0x3faaf382	1.3355563
43	0xbfae7061	-1.3628045
44	0x3fa79146	1.3091209
45	0xbfa97eaf	-1.3241786
46	0x3fa33851	1.2751561
47	0x3fabb6d0	1.3415165
48	0x3fa7e434	1.3116517
49	0xbfa4a8f1	-1.2864057
50	0xbfa30d5c	-1.2738452
51	0x3fa67427	1.3004197
52	0x3faf862d	1.3712822
53	0xbfb2ffc4	-1.3984303
54	0x3fade199	1.3584472
55	0x3fac0fb1	1.3442289
56	0x3fa84618	1.3146391
57	0xbfac2b72	-1.3450758
58	0xbfa7a2ed	-1.3096596
59	0x3fad6dc8	1.3549128
60	0x3fa67ebf	1.300743
61	0x3fae22a0	1.3604317
62	0x3fb357e7	1.4011201
63	0xbfaa17cf	-1.3288516
64	0xbfa2dd5d	-1.2723805
65	0x3faf8003	1.3710941
66	0xbfa7a55e	-1.3097341
67	0xbfb03db3	-1.3768829
68	0xbfa60c55	-1.2972513
69	0x3faca5d6	1.3488109
70	0x3faee385	1.3663183
71	0xbfb0c916	-1.3811367
72	0xbfb22505	-1.3917547
73	0xbfb1d135	-1.389197
74	0xbfb1115d	-1.3833424
75	0x3fae677d	1.3625332
76	0x3fb1c092	1.3886893
77	0x3fa88885	1.3166662
78	0xbfa48756	-1.2853801
79	0xbfae1a16	-1.3601711
80	0x3fb1959b	1.3873781
81	0xbfa7b0fd	-1.3100888
82	0xbfadf861	-1.3591424
83	0x3fa80d32	1.3129027
84	0x3fb41d42	1.4071429
85	0xbfb38d78	-1.4027548
86	0x3facb08a	1.3491375
87	0xbfa3773d	-1.2770764
88	0xbfaf33ee	-1.3687723
89	0xbfb106aa	-1.3830159
90	0x3fa51b75	1.2899004
91	0xbfa4f88d	-1.2888352
92	0x3fa992c2	1.3247912
93	0x3fa448d7	1.2834729
94	0xbfacd011	-1.3500997
95	0x3fae4f65	1.3617979
96	0xbfa5f838	-1.2966375
97	0x3fab5ddb	1.3388017
98	0x3faa4e2b	1.3305105
99	0x3fb24017	1.3925809
100	0x3fa80711	1.3127156
101	0x3fa9996c	1.3249946
102	0xbfaf1bd0	-1.3680363
103	0x3fa946cf	1.3224734
104	0x3fa855d8	1.3151197
105	0xbfb1a4cd	-1.3878418
106	0xbfb39cbd	-1.4032208
107	0xbfa7d28d	-1.311113
108	0x3fa8585e	1.3151968
109	0x3fa79e16	1.3095119
110	0xbfa4ed9e	-1.2885015
111	0x3faa420d	1.3301407
112	0xbfafa49c	-1.372211
113	0xbfa8bc3f	-1.3182448
114	0xbfae7819	-1.3630401
115	0xbfb13342	-1.3843768
116	0xbfa6e45e	-1.3038442
117	0xbfb31279	-1.3990012
118	0xbfa87adc	-1.3162494
119	0x3fa5758d	1.2926499
120	0x3faab8f2	1.3337691
121	0x3fa48a2a	1.2854664
122	0x3fa53324	1.2906232
123	0xbfacfcba	-1.3514626
124	0xbfa7c42a	-1.310674
125	0x3fac1272	1.3443129
126	0x3fa9b1ff	1.3257445
127	0x3faa0795	1.3283564
