model_M3.pth (torch, 68303 bytes, 3 tensors)

fc1.weight f4 [128, 128]
000000 c6 66 5b 3f 3e 2b 65 3f aa bb 81 3f 45 82 6a 3f
       0.85703695 0.8951911 1.0135396 0.91605026
000010 e5 41 64 3f a7 60 61 3f 3d d1 80 3f b1 3d 71 3f
       0.8916305 0.88038105 1.0063854 0.9423476
000020 22 d8 5a 3f 2c 5a 4e 3f e8 4e 66 3f d7 6a 58 3f
       0.8548604 0.8060634 0.8996415 0.84538025
000030 21 52 24 3f 3b 7e 2d 3f f8 b4 5e 3f f9 f7 50 3f
       0.6418782 0.6777074 0.86994886 0.81628376
000040 94 7e 36 3f 53 69 14 3f d5 3c 38 3f 1b e2 12 3f
       0.7128689 0.5797321 0.7196782 0.5737626
000050 43 c2 11 3f b0 83 35 3f a5 c9 3a 3f 89 a6 23 3f
       0.56937045 0.70904064 0.72963935 0.6392599
000060 59 12 01 3f d9 ae 12 3f 81 e8 28 3f 21 14 1b 3f
       0.5041862 0.57298046 0.6597977 0.6057759
000070 71 98 00 3f 67 7a 0f 3f f6 23 0b 3f 88 32 19 3f
       0.5023261 0.56046146 0.5435175 0.5984273
000080 51 6f 65 3f c1 05 09 3f 61 25 47 3f 9b f5 43 3f
       0.8962298 0.53524405 0.7779141 0.7654664
000090 6d 5a 38 3f 5a 30 2d 3f 4a c4 81 3f a5 78 5a 3f
       0.7201298 0.67651904 1.0138028 0.8534034
0000a0 a6 0b 29 3f f4 0a 4a 3f 5b 6d 7a 3f aa de 2a 3f
       0.660334 0.78922963 0.97823113 0.6674601
0000b0 ad 3a f0 3e b1 43 0b 3f 76 80 2a 3f 64 ce 33 3f
       0.46919766 0.54400164 0.66602266 0.702368
0000c0 5a 00 e5 3e c2 80 33 3f ca ce 66 3f 23 75 39 3f
       0.4472683 0.70118344 0.90159285 0.7244436
0000d0 af 05 20 3f 24 da 0f 3f 5d d9 56 3f 6d ba 3c 3f
       0.6250867 0.5619223 0.8392542 0.73721963
0000e0 e3 07 27 3f 81 00 0c 3f 6e 8a 25 3f b3 30 22 3f
       0.6524641 0.5468827 0.6466435 0.6335556
0000f0 cf b1 03 3f 90 09 17 3f ac a3 fa 3e e4 d8 0a 3f
       0.5144319 0.58998966 0.48952997 0.542372
000100 2b 72 3c bf 52 3c 4e bf 24 c2 40 bf 08 f2 22 bf
       -0.73611706 -0.8056079 -0.75296235 -0.6365056
000110 70 0c 69 bf 51 47 5c bf dd 06 6e bf 35 a0 38 bf
       -0.91034603 -0.8604632 -0.9297922 -0.72119457
000120 a0 ae 63 bf d6 08 86 bf ca c5 81 bf fd b2 57 bf
       -0.8893833 -1.0471447 -1.0138485 -0.8425749
000130 de 01 72 bf 52 73 86 bf a5 57 69 bf 32 67 76 bf
       -0.945341 -1.0503943 -0.9114936 -0.96251214
000140 10 05 19 bf 18 db 1e bf c6 c5 dd be 53 77 fd be
       -0.5977335 -0.6205306 -0.43314952 -0.495051
000150 29 93 ed be 40 61 0f bf 7a be 0d bf 4e 5e e3 be
       -0.46401337 -0.56007767 -0.5536877 -0.44407886
000160 17 85 36 bf e0 30 1d bf 49 57 09 bf 84 57 07 bf
       -0.7129683 -0.614027 -0.5364881 -0.52867913
000170 09 ea 34 bf 21 6d 3f bf d9 11 28 bf 04 b0 fe be
       -0.7066961 -0.7477589 -0.65652233 -0.49743664
000180 40 51 22 bf 1f 53 16 bf 3f e5 21 bf 56 af 05 bf
       -0.6340523 -0.5872058 -0.63240427 -0.52220666
000190 14 2a 1d bf 8f 1c dd be c1 a5 1a bf fe da 10 bf
       -0.6139233 -0.4318585 -0.6040917 -0.56584156
0001a0 60 67 44 bb 9d 88 b4 be ba e8 5e bf d6 b3 28 bf
       -0.0029968843 -0.35260478 -0.8707386 -0.6589941
0001b0 b4 23 ad 3c 17 1d 8c 3d f6 2b 11 bd 02 5c 0c bf
       0.021135189 0.06841486 -0.035442315 -0.5482789
0001c0 ef e7 fc be 7e 79 ce be 2c 62 35 bf 57 2c e3 be
       -0.493957 -0.40327066 -0.70852923 -0.44369766
0001d0 9d 39 16 bf 96 58 f8 be 5c 9f 27 bf eb ad 23 bf
       -0.5868166 -0.48505086 -0.6547754 -0.6393725
0001e0 13 90 00 bf a8 aa 1c bc 3a 6b 10 bf 91 ae 4a bd
       -0.5021984 -0.009562172 -0.56413615 -0.049482886
0001f0 c1 11 26 bf a0 4d b7 bb 5d 7d 0a bf 18 a8 f9 be
       -0.6487084 -0.0055939704 -0.5409754 -0.48761058
000200 98 12 56 3f 92 05 5d 3f f3 46 74 3f f0 69 78 3f
       0.8362212 0.86336625 0.9542076 0.9703665
000210 a6 f5 5b 3f c7 6d 6e 3f ac a9 63 3f 60 d1 69 3f
       0.85921705 0.93136257 0.88930774 0.91335106
000220 ff 87 55 3f 28 a8 50 3f 1e 18 60 3f 19 ce 60 3f
       0.8341064 0.81506586 0.875368 0.8781448
000230 a5 ae 33 3f b2 12 1a 3f de c4 52 3f 25 eb 30 3f
       0.7018836 0.60184777 0.82331645 0.691088
000240 ad 53 2a 3f d4 60 24 3f 9f d2 28 3f 7b 13 1b 3f
       0.6653393 0.6421025 0.6594638 0.605766
000250 08 94 1a 3f e3 72 1e 3f 48 75 26 3f f9 15 2d 3f
       0.6038213 0.61894053 0.65022707 0.6761165
000260 e7 33 ed 3e 24 ba f6 3e db 43 0e 3f 5d 9f 0c 3f
       0.4632866 0.4818889 0.5557229 0.5493067
000270 2e e9 ff 3e a8 9c 0c 3f 28 2b 17 3f 0c 68 f2 3e
       0.4998259 0.5492654 0.59050226 0.47345006
000280 e9 89 66 3f 25 62 27 3f 67 61 54 3f b1 66 58 3f
       0.90054184 0.6538413 0.82961124 0.84531695
000290 43 17 50 3f d8 12 3c 3f 27 07 87 3f b1 85 5b 3f
       0.81285495 0.73466253 1.0549058 0.8575087
0002a0 f9 6a 25 3f 63 76 31 3f 97 89 67 3f 2a 9f 3a 3f
       0.6461635 0.6932127 0.9044432 0.72899115
0002b0 fa 93 07 3f a9 76 14 3f 95 cb 34 3f 76 b3 3a 3f
       0.5296017 0.5799356 0.7062314 0.72930086
0002c0 09 1f f1 3e 7a 07 2c 3f 34 41 4e 3f 9f fd 36 3f
       0.4709399 0.6719891 0.8056824 0.71480745
0002d0 9f a3 0c 3f 0b 66 1c 3f 3c 57 3a 3f 9d 3e 42 3f
       0.54937166 0.61093205 0.7278936 0.7587679
0002e0 13 58 48 3f 5f 1c 0a 3f c8 21 02 3f 2c 29 04 3f
       0.7825939 0.5394954 0.50832796 0.51625323
0002f0 f5 5b d5 3e 9c 3f 12 3f da 4e f7 3e 42 fc 10 3f
       0.4167172 0.5712831 0.48302346 0.56634915
000300 0a 46 42 bf f2 c1 56 bf 00 e1 35 bf 7d 42 22 bf
       -0.7588812 -0.8388969 -0.7104645 -0.63382703
000310 7f 94 5b bf 3d 17 55 bf e3 16 5e bf b0 67 28 bf
       -0.8577346 -0.83238584 -0.8675367 -0.65783215
000320 d2 d3 5a bf ff be 72 bf 8f 9b 68 bf a8 3c 65 bf
       -0.8547946 -0.94822687 -0.90862364 -0.8954568
000330 c8 99 71 bf 25 84 8b bf ef b4 6b bf 3b 19 64 bf
       -0.94375277 -1.0899702 -0.9207296 -0.89101
000340 7a 91 19 bf f6 f2 11 bf 54 cc da be a9 44 e7 be
       -0.59987605 -0.57011354 -0.42734015 -0.4516957
000350 b3 e1 0a bf 7a 86 ec be 52 80 0d bf b5 e2 fe be
       -0.5425064 -0.46196347 -0.55273926 -0.4978234
000360 47 39 2e bf 99 87 14 bf 64 85 f5 be c9 52 0b bf
       -0.6805615 -0.58019406 -0.4795333 -0.54423195
000370 52 18 39 bf ab a7 45 bf 0f dc 18 bf ae 01 c7 be
       -0.72302735 -0.77208966 -0.5971078 -0.3886847
000380 07 2e 20 bf 24 20 f8 be 00 bd 0e bf 83 99 01 bf
       -0.6257023 -0.4846202 -0.5575714 -0.50624865
000390 27 8c 13 bf 94 2b e1 be 49 cd 06 bf 74 5d fb be
       -0.5763573 -0.4397856 -0.5265699 -0.49094737
0003a0 9e 64 34 3d 8e 08 ab be 76 79 3b bf 2f 48 07 bf
       0.04404127 -0.33404964 -0.7323221 -0.5284452
0003b0 ea 24 1e 3d 2c 0f 04 bd 94 51 23 bd 8e 56 11 bf
       0.038609423 -0.03224103 -0.03987272 -0.56772697
0003c0 be f2 c9 be e0 71 db be f4 64 31 bf 01 7d ed be
       -0.3944301 -0.42860317 -0.6929467 -0.46384433
0003d0 ac 78 05 bf 46 27 fd be a9 19 45 bf f8 04 14 bf
       -0.52137256 -0.49444026 -0.7699228 -0.5782008
0003e0 07 fd 0a bf 3a 1a 4f bd e5 55 ea be a8 06 06 bd
       -0.5429234 -0.05056212 -0.45768657 -0.03272119
0003f0 f2 9f 2a bf 69 36 55 bd 7c 92 10 bf c5 4a e5 be
       -0.6665031 -0.052053843 -0.5647352 -0.44783607

fc1.bias f4 [128]
000000 08 3e 4e 3f 95 57 47 3f fd 71 53 bf 0d 3e 48 3f
       0.805634 0.77868015 -0.8259581 0.7821968
000010 30 b9 50 3f 6a 25 53 3f e4 ae 4d bf 5b 2f 57 bf
       0.81532574 0.82478964 -0.80344987 -0.84056634
000020 1f 48 3a 3f 35 79 46 bf e1 05 3e 3f 26 49 30 3f
       0.727663 -0.775287 0.7422772 0.68861616
000030 ae 4f 47 bf c6 37 48 3f 0d bd 46 bf 7a 3a 55 bf
       -0.77855957 0.78210104 -0.7763222 -0.83292353
000040 4c 13 55 bf d0 29 3c 3f 24 db 4a 3f 2d ec 3f 3f
       -0.8323257 0.735013 0.7924063 0.7496975
000050 68 a4 32 bf e9 7f 49 bf 67 86 68 bf e4 e6 46 3f
       -0.69782114 -0.787108 -0.9083008 0.7769606
000060 4c 0b 6a bf 4c ba 56 bf 7c 9b 3b bf 14 01 56 3f
       -0.9142349 -0.83878016 -0.73284125 0.83595395
000070 05 8d 4b bf c0 f8 56 bf 65 48 4d bf 5f 0d 50 3f
       -0.79512054 -0.8397331 -0.8018859 0.812704
000080 65 dd 4c bf 2c 7e 42 3f ac 81 59 3f 9a 87 3b 3f
       -0.8002532 0.75973773 0.8496349 0.73253787
000090 d6 c7 5c 3f 6b 82 61 bf 78 95 52 bf 3a 1b 42 3f
       0.86242425 -0.8808963 -0.8225932 0.75822794
0000a0 6e 00 42 3f 5f 45 3a bf 60 07 3f bf 8f 2f 41 bf
       0.75781906 -0.727621 -0.7462063 -0.75463194
0000b0 8a 35 4a bf dc 84 43 3f c5 d3 57 bf 39 19 4a bf
       -0.78987944 0.763746 -0.8430751 -0.78944737
0000c0 21 c5 47 bf be 24 3f 3f bd 34 5b 3f 71 01 5e 3f
       -0.7803517 0.7466544 0.8562735 0.8672095
0000d0 3e f6 4b 3f f6 90 39 bf 82 2e 45 3f 96 ed 48 bf
       0.7967261 -0.7248682 0.7702409 -0.7848753
0000e0 a9 8b 5c 3f 99 9b 4f bf 3d 2a 55 bf 4b da 46 bf
       0.86150604 -0.810968 -0.83267576 -0.7767684
0000f0 31 5b 5e bf 34 16 4a 3f 1c b8 43 3f 64 b7 49 3f
       -0.868579 0.7894013 0.76452804 0.78795457
000100 83 6d 44 bf 09 ec 44 bf b4 0f 59 3f a9 80 58 bf
       -0.767296 -0.7692266 0.84789586 -0.8457132
000110 62 5d 43 3f db db 5a bf 77 d2 4b 3f 2c d2 60 3f
       0.76314366 -0.8549172 0.7961802 0.87820697
000120 cb 38 59 bf 30 99 44 bf 1f 18 47 3f 3d 50 4b bf
       -0.84852284 -0.76796246 0.7777118 -0.7941931
000130 70 fd 45 3f 7f 01 57 bf db 33 62 3f 18 5e 53 3f
       0.7733984 -0.8398666 0.88360375 0.8256545
000140 97 ca 51 3f 4f a5 46 bf 8f a7 5b 3f 8d df 61 bf
       0.8194975 -0.7759599 0.8580255 -0.88231736
000150 7a 6d 43 3f f8 a7 52 3f 63 af 5d bf 88 6f 54 bf
       0.7633892 0.8228755 -0.86595744 -0.82982683
000160 b3 3b 59 3f 60 9d 69 bf b5 6d 56 bf a7 5b 43 bf
       0.8485672 -0.9125576 -0.8376115 -0.76311725
000170 8c b5 48 3f 3b 4e 53 3f 04 84 59 3f bc 75 5e bf
       0.7840202 0.82541245 0.84967065 -0.868984
000180 47 b6 39 bf da d5 52 3f 4a cb 42 3f f4 bd 3f bf
       -0.7254376 0.8235756 0.76091444 -0.7489922
000190 6e b8 53 3f a3 0b 4c 3f ed bb 51 bf 80 58 53 bf
       0.8270329 0.79705256 -0.81927377 -0.82556915
0001a0 1a f0 49 bf 29 56 47 bf 0c c0 4f 3f 5a 6e 5b bf
       -0.7888199 -0.77865845 0.81152415 -0.8571526
0001b0 dc 0c 51 3f 8c 2c 5c 3f 3a 69 4f bf 3f d1 44 3f
       0.81660247 0.86005473 -0.8101994 0.76881784
0001c0 01 f5 47 bf 90 72 4b bf e5 48 59 bf e2 12 4b 3f
       -0.7810822 -0.79471684 -0.84876853 0.7932569
0001d0 42 5b 51 bf 85 96 48 bf 1e 3f 39 3f e7 f7 4c bf
       -0.81779873 -0.78354675 0.72361934 -0.8006577
0001e0 e8 83 5b 3f f7 4b 5d bf 56 e7 49 3f 19 b0 3d 3f
       0.8574815 -0.8644404 0.78868616 0.7409683
0001f0 71 54 44 3f eb fd 51 bf f2 62 5a bf 28 b0 59 3f
       0.7669135 -0.82028073 -0.8530723 0.8503442

fc2.weight f4 [1, 128]
000000 b5 a8 14 c0 35 61 16 c0 96 08 14 40 9a 7a 18 c0
       -2.322797 -2.349683 2.313024 -2.382483
000010 85 73 14 c0 92 dc 17 c0 df db 17 40 77 e9 14 40
       -2.3195508 -2.3728375 2.3727949 2.3267496
000020 7b 88 19 c0 a3 e0 15 40 8b f3 15 c0 60 da 1a c0
       -2.398955 2.3418357 -2.3429897 -2.4195786
000030 c0 07 15 40 b2 d6 16 c0 4d cb 16 40 8f c3 15 40
       2.328598 -2.356854 2.3561585 2.340061
000040 3c 89 17 40 64 01 17 c0 10 51 14 c0 c7 f4 18 c0
       2.3677511 -2.3594599 -2.3174477 -2.38994
000050 ff d0 1a 40 db e0 19 40 99 b6 11 40 c3 76 15 c0
       2.419006 2.404349 2.2767699 -2.3353736
000060 0c 49 11 40 b8 1c 13 40 f6 67 1a 40 26 e4 13 c0
       2.2700834 2.2986279 2.4125953 -2.3108
000070 bb e0 14 40 a8 41 17 40 17 1d 16 40 0a 18 15 c0
       2.3262165 2.3633823 2.3455255 -2.3295922
000080 bd 48 15 40 aa 22 16 c0 86 ae 17 c0 ce 60 18 c0
       2.3325646 -2.3458657 -2.370027 -2.3809085
000090 9c 43 14 c0 63 08 14 40 b0 aa 13 40 d8 b6 18 c0
       -2.3166265 2.313012 2.307293 -2.38616
0000a0 1d 85 19 c0 2b 2f 1a 40 70 81 1a 40 c9 d2 19 40
       -2.3987496 2.409129 2.4141502 2.4034903
0000b0 39 29 15 40 c3 f4 15 c0 0d fe 15 40 13 6b 17 40
       2.330641 -2.343064 2.343631 2.3659103
0000c0 be 5d 17 40 14 f0 1a c0 a3 b4 14 c0 98 9f 12 c0
       2.3650966 -2.4209032 -2.3235252 -2.2909908
0000d0 7a 43 16 c0 5a 52 1a 40 9c 2d 15 c0 ed 07 17 40
       -2.3478684 2.4112763 -2.3309088 2.3598588
0000e0 e2 aa 13 c0 97 26 14 40 95 ba 13 40 03 67 18 40
       -2.3073049 2.3148553 2.308263 2.3812873
0000f0 51 a9 14 40 5c d2 13 c0 27 36 1a c0 78 60 16 c0
       2.3228343 -2.3097143 -2.4095552 -2.349638
000100 41 d3 19 40 8d 0d 18 40 08 b6 13 c0 69 75 18 40
       2.403519 2.375827 -2.3079853 2.3821661
000110 c6 25 18 c0 44 16 15 40 07 5e 17 c0 f6 44 13 c0
       -2.3773055 2.329484 -2.365114 -2.301084
000120 bb 10 15 40 18 12 1b 40 2d 4a 18 c0 72 dc 16 40
       2.3291461 2.4229794 -2.3795273 2.357205
000130 55 0e 1b c0 a8 5a 16 40 23 fe 12 c0 8f b7 16 c0
       -2.4227498 2.3492832 -2.2967613 -2.3549535
000140 56 20 18 c0 9a ad 15 40 01 95 15 c0 0f 78 13 40
       -2.3769736 2.3387208 -2.3372195 2.3042028
000150 f1 b9 18 c0 4c 6b 1a c0 f4 4c 13 40 83 d8 13 40
       -2.386349 -2.412799 2.3015718 2.3100898
000160 51 19 13 c0 c6 7f 12 40 1c e1 14 40 db f8 18 40
       -2.2984202 2.2890487 2.3262396 2.390189
000170 7c 0e 1a c0 69 d4 14 c0 48 16 15 c0 f6 df 12 40
       -2.407134 -2.3254645 -2.329485 2.2949195
000180 f8 22 19 40 dc cc 13 c0 a3 c3 19 c0 43 0b 19 40
       2.3927593 -2.3093786 -2.4025657 2.3913124
000190 88 89 18 c0 11 ba 14 c0 23 ce 13 40 7d a4 15 40
       -2.3833942 -2.3238566 2.3094566 2.3381646
0001a0 a9 36 16 40 e9 8f 19 40 a8 17 17 c0 20 67 13 40
       2.3470862 2.3994086 -2.3608189 2.3031693
0001b0 2d f2 17 c0 4d 9b 13 c0 64 df 18 40 b1 46 17 c0
       -2.3741562 -2.3063538 2.3886347 -2.3636897
0001c0 e1 b3 16 40 b7 57 17 40 94 94 14 40 94 6e 19 c0
       2.354729 2.3647287 2.3215685 -2.3973742
0001d0 ce 05 19 40 0e 07 18 40 4b 83 19 c0 4a ca 13 40
       2.3909793 2.3754306 -2.3986385 2.3092217
0001e0 3a 31 16 c0 6d 57 13 40 ca 77 16 c0 19 69 18 c0
       -2.3467546 2.302211 -2.3510613 -2.3814147
0001f0 1f 62 18 c0 02 ab 13 40 43 6b 14 40 9d 5e 14 c0
       -2.3809888 2.3073125 2.3190467 -2.3182747
