model_M2.pth (torch, 68303 bytes, 3 tensors)

fc1.weight f4 [128, 128]
000000 ac 2f 4a bf 07 78 35 bf dd 68 33 bf 3e eb 23 bf
       -0.7897899 -0.7088627 -0.70081884 -0.64030826
000010 a7 73 3b bf 7c 93 52 bf d4 3a 50 bf 7d ed 31 bf
       -0.73223346 -0.82256293 -0.81339765 -0.69503003
000020 d2 7a 31 bf 4c fc 41 bf fb a6 4b bf 6e 7b 39 bf
       -0.69328034 -0.757756 -0.79551667 -0.72453964
000030 e0 e1 26 bf 24 4c 36 bf 35 95 41 bf a7 1c 34 bf
       -0.6518841 -0.7120993 -0.75618297 -0.7035622
000040 37 c2 b3 3d e2 92 04 3d ce b6 dc bc 7d aa 05 bd
       0.08777278 0.03236664 -0.026942637 -0.032633293
000050 f5 a5 3c be 6c 61 4d bd 98 b6 67 be 25 ef 4c bd
       -0.18422683 -0.050141737 -0.22628248 -0.050032753
000060 40 b6 79 3c 76 10 51 be b8 c6 8a be f1 b9 86 be
       0.015241206 -0.20416436 -0.27104735 -0.26313737
000070 23 75 9c be c0 1c 99 be da cb 93 be 5e 4c 5a be
       -0.30558118 -0.29904747 -0.28866464 -0.21318194
000080 f1 97 1e bf cf d1 32 bf 8a 75 27 bf ca e4 19 bf
       -0.61950594 -0.6985139 -0.65413725 -0.6011473
000090 2a 2e 2a bf 1c 96 2e bf ab 1c 36 bf a1 38 14 bf
       -0.6647669 -0.681978 -0.71137494 -0.5789891
0000a0 5f f3 2e bf 62 e5 21 bf 0c ab 09 bf 9a a6 3b bf
       -0.68340105 -0.63240635 -0.5377662 -0.7330109
0000b0 2d af 2b bf 68 49 26 bf fc 81 32 bf f5 e7 1b bf
       -0.6706417 -0.6495576 -0.6972959 -0.60900813
0000c0 56 ca 4a bf 57 84 48 bf f5 53 4f bf b4 9f 51 bf
       -0.7921499 -0.78326935 -0.80987483 -0.8188431
0000d0 98 f4 52 bf ea bc 51 bf ba 17 4c bf 9b 84 3e bf
       -0.8240447 -0.81928885 -0.79723704 -0.7442109
0000e0 4c fd 56 bf 41 d0 4f bf fe 36 37 bf 8d 16 36 bf
       -0.8398025 -0.81177145 -0.71568286 -0.7112816
0000f0 32 cd 3b bf 3c d5 44 bf 64 f9 41 bf 9a ab 4e bf
       -0.7335998 -0.7688787 -0.75771165 -0.80730593
000100 ec 8f 2e 3f 77 43 43 3f 4c e9 2b 3f 95 1d 44 3f
       0.6818836 0.7627482 0.6715286 0.7660764
000110 70 e5 37 3f eb 31 33 3f 63 5b 46 3f fb 7f 4a 3f
       0.7183447 0.69998044 0.77483195 0.7910153
000120 d6 d6 4f 3f 3a b1 34 3f b8 3b 44 3f f5 22 45 3f
       0.8118719 0.70582926 0.76653624 0.77006465
000130 95 5c 56 3f 34 4c 4c 3f 4f 64 4d 3f 1e 23 37 3f
       0.8373502 0.79803777 0.80231184 0.7153796
000140 06 0c 53 3d 50 44 a3 3c 77 9f 96 3e a0 5d 6d bb
       0.05152514 0.019930035 0.29418537 -0.0036219135
000150 28 73 b3 3c bc 70 83 bc 36 ae 57 3d b4 a2 0a 3d
       0.021905497 -0.016044967 0.052656375 0.033846572
000160 ff 48 ad 3d 28 f1 85 bd ba 1a 40 3d 86 1e 86 bd
       0.084611885 -0.065401375 0.04690049 -0.06548791
000170 f0 ac 7d bc 38 47 eb 3c 1e 8a 83 bd 3c ba 00 3d
       -0.015483126 0.028720483 -0.06422828 0.031427607
000180 72 82 38 3d 6a cf 65 bd 8c 44 a4 bd 2d a9 b0 3e
       0.045046277 -0.05610601 -0.08020887 0.3450407
000190 65 c5 81 bd 00 03 91 bc 63 04 90 3d ac 45 8f 3c
       -0.06336478 -0.017701626 0.07032087 0.017489277
0001a0 b0 56 12 3c 3e 26 aa bd fe cf 2b 3d 9c 8a 64 bd
       0.008931801 -0.08308075 0.041946404 -0.05579625
0001b0 ef ba 03 3f 7c 78 13 bd 75 7f 69 bd aa 80 28 3d
       0.51457113 -0.036003575 -0.057006318 0.04113833
0001c0 b5 48 fb 3e 70 e3 2f 3f e8 1d 27 3f bd d1 34 3f
       0.4907891 0.6870642 0.6528001 0.70632535
0001d0 00 87 23 3f fc 2c 24 3f 1e 82 0f 3f e6 c9 1e 3f
       0.6387787 0.6413114 0.5605792 0.6202682
0001e0 ed e8 1a 3f a1 a5 3d 3f b9 73 0d 3f b7 14 10 3f
       0.60511667 0.74080855 0.55254704 0.5628161
0001f0 c6 ca 40 3f 5f af 12 3f 3a 90 1c 3f 6b d6 0a 3f
       0.7530941 0.57298845 0.6115757 0.54233426
000200 70 c9 51 3f f8 b5 50 3f 96 a2 38 3f 7b 27 31 3f
       0.81947994 0.8152766 0.72123086 0.6920087
000210 55 89 41 3f c5 df 3a 3f 77 48 42 3f f0 ba 39 3f
       0.7560018 0.72997695 0.7589182 0.7255087
000220 dc 52 2d 3f 1d 0c 37 3f 97 0a 4b 3f ef 21 37 3f
       0.6770456 0.7150286 0.79313034 0.71536154
000230 d1 1b 40 3f 8b aa 34 3f 63 7d 40 3f 23 3c 4f 3f
       0.75042444 0.7057273 0.75191325 0.80951136
000240 b4 4b a1 3c 20 53 47 3b 94 03 8a 3c 80 6e 14 3c
       0.019689418 0.0030414537 0.01684741 0.009059548
000250 95 d0 9b 3e b2 44 0b 3d e1 1d 8c 3e 5d 20 8c 3d
       0.30432573 0.03400106 0.27366546 0.0684211
000260 8a 7f b3 bd be 60 62 3e 0d 1c 96 3e fa 8a 9c 3e
       -0.087645605 0.22107217 0.29318276 0.3057478
000270 5c 48 8e 3e 90 c4 66 3e ca d9 84 3e 54 4a 7b 3e
       0.2778958 0.2253592 0.2594741 0.24540073
000280 bb e4 0e 3f 06 7f 28 3f 81 52 0f 3f c5 93 32 3f
       0.55817765 0.6581882 0.55985266 0.6975673
000290 e3 37 2e 3f 82 7f 10 3f e3 cd 2c 3f 57 03 2d 3f
       0.68054026 0.5644456 0.6750166 0.6758322
0002a0 f5 5e 37 3f 19 80 36 3f 0b 92 12 3f 9d 93 3b 3f
       0.7162927 0.7128921 0.57254094 0.73272115
0002b0 b3 f8 22 3f 8e fc 24 3f 6a 8a 25 3f 84 84 1b 3f
       0.63660735 0.6444787 0.6466433 0.6074908
0002c0 66 4b 5a 3f 9a 1f 4a 3f 16 80 5a 3f b0 93 3b 3f
       0.852713 0.7895447 0.85351694 0.7327223
0002d0 3e d1 41 3f cb 8c 3e 3f a7 98 52 3f d7 52 46 3f
       0.75709903 0.74433583 0.8226418 0.77470154
0002e0 f5 7a 3f 3f a2 24 44 3f f7 6a 55 3f ed 07 38 3f
       0.7479699 0.766184 0.8336634 0.71887094
0002f0 e5 0f 46 3f 7b f0 54 3f 58 b9 59 3f 35 bf 4a 3f
       0.77368003 0.83179444 0.8504844 0.7919801
000300 58 23 2c bf 43 c3 4e bf 75 15 35 bf d6 49 3a bf
       -0.6724143 -0.80766696 -0.70735866 -0.72768915
000310 e0 83 30 bf c7 76 54 bf 0e da 2a bf 0b dd 50 bf
       -0.68951225 -0.8299374 -0.66738975 -0.81587285
000320 cc 15 41 bf 9b 63 37 bf 50 06 36 bf a0 e3 42 bf
       -0.75423884 -0.7163636 -0.7110338 -0.7612858
000330 c6 d0 5d bf 1b a5 4a bf fa 0d 55 bf c7 5d 49 bf
       -0.8664669 -0.7915818 -0.8322445 -0.7865872
000340 4c 99 79 bd 7a 8d 8e bd 36 2c 80 be 1f 7b b0 3d
       -0.06093721 -0.06960578 -0.2503373 0.086172335
000350 8e 92 10 3d 1e c0 da bc 48 46 ad bc 8e 70 44 3d
       0.035296015 -0.026702937 -0.021151677 0.047958903
000360 4e fa 73 3d 8a ad 1d 3d b3 d2 a5 3d 28 1a a0 3c
       0.05956488 0.038495578 0.08096828 0.019543722
000370 a8 5c e7 3c d5 e1 af 3d e7 84 9f bd e0 2b fb bb
       0.028242424 0.08587996 -0.07789021 -0.0076651424
000380 f7 74 a7 3d bb 9c 94 3d 1a 54 70 3d ad 2d a7 be
       0.08176606 0.072564565 0.058673956 -0.32652035
000390 80 ac 58 ba 3a 11 52 bd 69 50 b2 3d 34 9e 14 3d
       -0.00082654506 -0.05128596 0.08706743 0.036283687
0003a0 be e8 a5 bd 7c b3 76 bd c6 cc e8 bc b8 cc f5 3c
       -0.08101033 -0.060229763 -0.028417956 0.030004844
0003b0 0d 1a 1b bf ff 9f ab bd d0 0c cf bc 3a 82 81 bd
       -0.60586625 -0.08380126 -0.025274664 -0.06323667
0003c0 44 8b 23 bf 61 c0 23 bf d8 ef 2a bf 85 fd 29 bf
       -0.6388438 -0.6396542 -0.6677222 -0.66402465
0003d0 57 7c 2e bf ee 11 3f bf 86 92 2d bf 66 de 09 bf
       -0.6815848 -0.74636734 -0.678017 -0.5385498
0003e0 1b 4a 37 bf b3 13 3d bf 72 ce 19 bf 96 45 1c bf
       -0.7159745 -0.73858184 -0.60080636 -0.6104368
0003f0 70 a5 39 bf 84 a5 25 bf ff 82 23 bf 8a f0 11 bf
       -0.7251806 -0.6470568 -0.6387176 -0.5700766

fc1.bias f4 [128]
000000 ff 4f 28 bf ef 05 53 3f 7a a5 39 bf c6 79 2b 3f
       -0.65747064 0.8243093 -0.7251812 0.66982687
000010 13 9d 54 3f 62 5f 27 bf d0 7b 31 3f fa 02 44 3f
       0.83052176 -0.6537992 0.6932955 0.7656704
000020 11 db 47 3f 5f cd 3d bf 64 c4 44 3f 99 8d 41 bf
       0.78068644 -0.74141496 0.7686217 -0.75606686
000030 8b 7b 4c bf 29 65 46 bf 89 b9 4c 3f 80 34 49 bf
       -0.7987601 -0.7749811 0.79970604 -0.78595734
000040 93 c2 42 bf fd 2c 3e bf 21 d8 44 bf 35 3f 4a bf
       -0.76078147 -0.74287397 -0.76892287 -0.79002696
000050 56 b1 33 3f 8c ad 4d bf a7 b9 2d bf 06 8c 40 3f
       0.7019247 -0.80342937 -0.6786141 0.7521366
000060 4b ae 34 bf d1 d6 4d 3f 00 ff 3e 3f cc 18 36 3f
       -0.7057845 0.8040591 0.7460785 0.7113159
000070 49 d7 46 3f d4 cb 3d 3f a4 ba 3f bf 69 65 35 bf
       0.7767225 0.7413914 -0.74894166 -0.70857865
000080 91 d7 48 3f 27 3a 3c bf 68 b2 3a 3f a1 af 43 bf
       0.7845393 -0.73526233 0.72928476 -0.76439863
000090 b1 2a 35 bf e4 ca 3b bf 84 f2 47 bf 48 fb 44 bf
       -0.70768267 -0.7335646 -0.78104424 -0.76945925
0000a0 57 73 49 3f ed d8 44 bf 1c 55 4d bf 7b 04 44 3f
       0.7869162 -0.768935 -0.8020799 0.76569337
0000b0 b0 03 3a bf ae 7e 49 bf 58 14 37 bf ed 50 49 3f
       -0.72661877 -0.7870892 -0.7151542 0.7863911
0000c0 3e 8d 34 bf 98 78 4a 3f 54 46 38 3f 2c 85 56 3f
       -0.7052802 0.7909026 0.7198231 0.83796954
0000d0 f0 59 43 bf 47 1b 55 3f 71 11 47 bf e3 9a 33 3f
       -0.7630911 0.83244747 -0.7776099 0.70158213
0000e0 f9 a0 3d 3f f2 e5 44 3f 8f b4 4e bf 50 d9 30 3f
       0.7407375 0.7691337 -0.8074426 0.6908159
0000f0 13 98 39 bf 83 8e 46 bf ca 21 32 3f 1f c4 41 3f
       -0.7249767 -0.77561206 0.6958281 0.7568988
000100 71 4e 33 3f c4 36 55 bf 4b bd 44 3f 3e fa 48 bf
       0.7004157 -0.8328669 0.7685134 -0.7850684
000110 6c cd 34 bf 05 58 47 bf e9 4d 54 3f 71 4e 4c bf
       -0.7062595 -0.7786868 0.8293138 -0.7980719
000120 47 85 4d bf b8 d1 35 3f 96 75 2e 3f 9b c8 42 bf
       -0.8028149 0.7102313 0.6814817 -0.7608735
000130 09 14 35 bf 88 93 42 3f 77 c2 51 bf 91 e2 44 3f
       -0.70733696 0.76006365 -0.81937355 0.7690821
000140 5c 61 45 3f de e5 49 3f 63 68 2a 3f 25 e6 2b bf
       0.77101684 0.78866374 0.6656553 -0.6714805
000150 16 a9 4e 3f a1 14 2a bf 0c e5 4b 3f 3c d6 54 bf
       0.80726755 -0.6643773 0.7964637 -0.83139396
000160 05 2c 3f bf 83 4f 45 3f fa c5 4e 3f 0e db 4a 3f
       -0.74676543 0.7707445 0.8077084 0.792405
000170 9a b3 45 bf 63 fb 44 3f a2 0d 30 bf 4f eb 36 bf
       -0.77227175 0.76946086 -0.687708 -0.714528
000180 56 7c 49 3f 04 62 31 bf be 4b 44 3f b7 31 55 bf
       0.78705347 -0.69290185 0.76678073 -0.83278984
000190 b3 3b 2b 3f b1 ce 4e bf 6f 78 50 3f 2b 20 50 3f
       0.6688797 -0.80784136 0.8143377 0.81299084
0001a0 47 88 39 bf 91 00 40 bf 87 d0 4d 3f 21 d3 39 bf
       -0.7247357 -0.75000864 0.8039631 -0.7258778
0001b0 ea e8 47 bf 2f c9 3d 3f b0 c2 45 bf 13 eb 3f 3f
       -0.78089774 0.74135107 -0.77250195 0.7496807
0001c0 23 01 39 3f 24 fc 44 3f 28 fd 4d 3f e9 ec 3f bf
       0.7226736 0.76947236 0.8046441 -0.7497087
0001d0 c4 16 47 bf 9a 2a 3b 3f b0 d0 37 3f 98 4f 33 bf
       -0.7776911 0.7311188 0.71802807 -0.70043325
0001e0 53 88 45 3f e8 ab 4f bf fb ee 51 3f 86 0f 4a bf
       0.7716114 -0.81121683 0.8200528 -0.78929937
0001f0 a5 ba 36 3f e6 50 3c 3f ac 21 3e 3f d2 c1 4f bf
       0.71378547 0.7356094 0.7427013 -0.8115512

fc2.weight f4 [1, 128]
000000 3c 99 da 3f 10 aa ce bf ab 78 d7 3f 11 bb d6 bf
       1.7078013 -1.6145649 1.68337 -1.6775838
000010 41 d9 ce bf 59 ee dd 3f c6 e7 da bf c1 b6 d1 bf
       -1.6160051 1.7338363 -1.7101982 -1.6383897
000020 27 b9 d6 bf 1a 07 d8 3f 5a 51 d8 bf b7 8c d9 3f
       -1.6775254 1.6877167 -1.6899827 1.6996068
000030 1b 52 ce 3f 58 62 d9 3f 18 5c d5 bf ba 1b d0 3f
       1.6118807 1.6983137 -1.666873 1.6258461
000040 e1 08 da 3f 59 df d1 3f 14 df d1 3f 04 83 d3 3f
       1.703396 1.6396285 1.6396203 1.6524358
000050 2e d5 d8 bf 93 3c d1 3f b3 64 d9 3f 64 1b d7 bf
       -1.6940057 1.6346611 1.6983856 -1.6805234
000060 37 03 d9 3f 5e 0e ce bf fc aa d5 bf 1e 38 d8 bf
       1.6954106 -1.6098135 -1.6692805 -1.6892126
000070 c4 27 d7 bf b3 b8 d4 bf 78 5c d1 3f 1b 64 d5 3f
       -1.680901 -1.6618866 1.6356344 1.6671175
000080 d3 b2 d4 bf e3 15 d2 3f 25 4b d9 bf 8d d9 cf 3f
       -1.6617073 1.6412929 -1.6976057 1.6238266
000090 cf 8b d4 3f 0f bd d8 3f f1 bf d5 3f 4c 45 d9 3f
       1.6605166 1.6932696 1.6699201 1.6974273
0000a0 b0 ad d5 bf aa b1 d7 3f 7b 34 ce 3f 69 6e d7 bf
       -1.669363 1.6851094 1.6109766 -1.683057
0000b0 37 ee d0 3f 31 66 d1 3f 8f eb d0 3f 06 b7 cf bf
       1.6322697 1.6359311 1.6321887 -1.6227729
0000c0 d4 42 da 3f 4d 2f cd bf 58 af dc bf 85 74 d1 bf
       1.7051644 -1.603006 -1.7241011 -1.6363684
0000d0 3a c7 d3 3f d9 e5 ca bf fa 9e da 3f 4a b5 cf bf
       1.6545174 -1.5851394 1.7079766 -1.62272
0000e0 f4 6b d6 bf 1c bb d2 bf a9 94 ce 3f f3 67 d5 bf
       -1.6751695 -1.6463351 1.6139117 -1.6672348
0000f0 e3 f7 d0 3f a0 8f cf 3f 5f 86 d4 bf 61 3c d0 bf
       1.6325649 1.6215706 -1.6603507 -1.6268426
000100 bc 9c db bf a0 8f cc 3f 5f 37 d7 bf 32 e7 d4 3f
       -1.7157207 1.5981331 -1.6813773 1.6633055
000110 75 fa db 3f 12 44 cf 3f 20 f2 ce bf 9b e1 d0 3f
       1.7185808 1.6192648 -1.6167641 1.6318849
000120 5a b7 ce 3f 0a c9 d1 bf 6e 64 d9 bf e2 ed d4 3f
       1.6149704 -1.6389477 -1.6983774 1.6635096
000130 47 1f dd 3f 36 dd db bf 8b 24 d0 3f 2f 3a d0 bf
       1.727517 -1.7176883 1.6261152 -1.6267756
000140 b8 7e d3 bf 08 be d1 bf 6c 48 dd bf aa eb db 3f
       -1.6523046 -1.6386118 -1.7287726 1.7181294
000150 01 26 cf bf ad d9 dc 3f 1a 31 d2 bf db 24 d2 3f
       -1.6183473 1.7253929 -1.6421235 1.6417497
000160 35 c0 d2 3f 26 4b d0 bf 63 ef d0 bf b4 8e cc bf
       1.6464907 -1.6272933 -1.6323055 -1.598105
000170 41 8f cc 3f 51 7f ce bf 9c 69 d6 3f c9 16 d2 3f
       1.5981218 -1.6132604 1.675098 1.6413203
000180 89 75 d4 bf cb 7d d5 3f 98 4a d4 bf 5a b9 d0 3f
       -1.6598369 1.6679014 -1.6585264 1.6306565
000190 c5 b0 d7 bf 52 9e cf 3f 01 ae d0 bf c0 78 cd bf
       -1.6850821 1.622019 -1.6303102 -1.6052475
0001a0 a4 a2 d6 3f a5 02 db 3f 37 06 d3 bf 26 fb d3 3f
       1.6768384 1.7110182 -1.6486272 1.656102
0001b0 5b 3f cf 3f d0 3e d1 bf c2 f9 d7 3f 03 95 d7 bf
       1.619121 -1.6347294 1.6873095 -1.684235
0001c0 b7 de db bf f1 93 cf bf 81 29 cf bf a8 1e d1 3f
       -1.7177342 -1.6217023 -1.6184541 1.633748
0001d0 51 2e d2 3f a5 30 de bf e8 cf d6 bf 27 94 d7 3f
       1.6420385 -1.7358595 -1.6782198 1.6842088
0001e0 dc 62 cf bf 7d 7e cc 3f 4b 32 cd bf 67 9c cf 3f
       -1.6202044 1.5976101 -1.6030973 1.6219605
0001f0 e7 20 d4 bf a2 e7 d4 bf b2 c4 d0 bf e8 e1 cb 3f
       -1.6572541 -1.6633189 -1.6310027 1.5928316
